…
    x = layers.Conv2D(64, kernel_size, activation='relu', padding='same')(x)
    x = layers.BatchNormalization()(x)
    x = layers.MaxPooling2D(pool_size, padding='same')(x)
    x = l
[6]
autoencoder = autoencoder_model()

autoencoder.summary()
Model: "model"
_________________________________________________________________
Layer (type)                 Output Shape              Param #   
=================================================================
input_1 (InputLayer)         [(None, 128, 128, 3)]     0         
_________________________________________________________________
conv2d (Conv2D)              (None, 128, 128, 128)     3584      
_________________________________________________________________
batch_normalization (BatchNo (None, 128, 128, 128)     512       
_________________________________________________________________
max_pooling2d (MaxPooling2D) (None, 64, 64, 128)       0         
_________________________________________________________________
conv2d_1 (Conv2D)            (None, 64, 64, 64)        73792     
_________________________________________________________________
batch_normalization_1 (Batch (None, 64, 64, 64)        256       
_________________________________________________________________
max_pooling2d_1 (MaxPooling2 (None, 32, 32, 64)        0         
_________________________________________________________________
conv2d_2 (Conv2D)            (None, 32, 32, 32)        18464     
_________________________________________________________________
batch_normalization_2 (Batch (None, 32, 32, 32)        128       
_________________________________________________________________
encoder (MaxPooling2D)       (None, 16, 16, 32)        0         
_________________________________________________________________
conv2d_3 (Conv2D)            (None, 16, 16, 32)        9248      
_________________________________________________________________
batch_normalization_3 (Batch (None, 16, 16, 32)        128       
_________________________________________________________________
up_sampling2d (UpSampling2D) (None, 32, 32, 32)        0         
_________________________________________________________________
conv2d_4 (Conv2D)            (None, 32, 32, 64)        18496     
_________________________________________________________________
batch_normalization_4 (Batch (None, 32, 32, 64)        256       
_________________________________________________________________
up_sampling2d_1 (UpSampling2 (None, 64, 64, 64)        0         
_________________________________________________________________
conv2d_5 (Conv2D)            (None, 64, 64, 128)       73856     
_________________________________________________________________
batch_normalization_5 (Batch (None, 64, 64, 128)       512       
_________________________________________________________________
up_sampling2d_2 (UpSampling2 (None, 128, 128, 128)     0         
_________________________________________________________________
conv2d_6 (Conv2D)            (None, 128, 128, 3)       3459      
=================================================================
Total params: 202,691
Trainable params: 201,795
Non-trainable params: 896
_________________________________________________________________
[7]
autoencoder.fit(ds_train_autoencoder,
                epochs=25,
                validation_data=ds_test_autoencoder, 
                callbacks=[
                           k.callbacks.TensorBoard(log_dir="./autoencoder/logs"), 
…
autoencoder = k.models.load_model('./autoencoder/ckpt/autoencoder-24-0.0029.hdf5')

encoder = k.Model(inputs=autoencoder.input,
                  outputs=autoencoder.get_layer('encoder').output)

encoder.summary()

classifier_fixed = model(encoder)

Model: "model_1"
_________________________________________________________________
Layer (type)                 Output Shape              Param #   
=================================================================
input_1 (InputLayer)         [(None, 128, 128, 3)]     0         
_________________________________________________________________
conv2d (Conv2D)              (None, 128, 128, 128)     3584      
_________________________________________________________________
batch_normalization (BatchNo (None, 128, 128, 128)     512       
_________________________________________________________________
max_pooling2d (MaxPooling2D) (None, 64, 64, 128)       0         
_________________________________________________________________
conv2d_1 (Conv2D)            (None, 64, 64, 64)        73792     
_________________________________________________________________
batch_normalization_1 (Batch (None, 64, 64, 64)        256       
_________________________________________________________________
max_pooling2d_1 (MaxPooling2 (None, 32, 32, 64)        0         
_________________________________________________________________
conv2d_2 (Conv2D)            (None, 32, 32, 32)        18464     
_________________________________________________________________
batch_normalization_2 (Batch (None, 32, 32, 32)        128       
_________________________________________________________________
encoder (MaxPooling2D)       (None, 16, 16, 32)        0         
=================================================================
Total params: 96,736
Trainable params: 96,288
Non-trainable params: 448
_________________________________________________________________
Model: "sequential"
_________________________________________________________________
Layer (type)                 Output Shape              Param #   
=================================================================
model_1 (Functional)         (None, 16, 16, 32)        96736     
_________________________________________________________________
flatten (Flatten)            (None, 8192)              0         
_________________________________________________________________
dense (Dense)                (None, 4096)              33558528  
_________________________________________________________________
dense_1 (Dense)              (None, 4096)              16781312  
_________________________________________________________________
dense_2 (Dense)              (None, 2042)              8366074   
_________________________________________________________________
dense_3 (Dense)              (None, 2042)              4171806   
_________________________________________________________________
dense_4 (Dense)              (None, 1024)              2092032   
_________________________________________________________________
dense_5 (Dense)              (None, 1024)              1049600   
_________________________________________________________________
dense_6 (Dense)              (None, 512)               524800    
_________________________________________________________________
dense_7 (Dense)              (None, 512)               262656    
_________________________________________________________________
dense_8 (Dense)              (None, 8)                 4104      
=================================================================
Total params: 66,907,648
Trainable params: 66,810,912
Non-trainable params: 96,736
_________________________________________________________________
[24]
classifier_fixed.fit(ds_train,
                epochs=25,
                validation_data=ds_test, 
                callbacks=[
                           k.callbacks.TensorBoard(log_dir="./classifier-fixed/logs"), 
…
        layers.Conv2D(128, kernel_size, activation='relu', padding='same'),
        layers.BatchNormalization(),
        layers.MaxPooling2D(pool_size, padding='same'),
        layers.Conv2D(64, kernel_size, activation='relu', padding='same'),
        layers.BatchNormalization(),
        layers.MaxPooling2D(pool_size, padding='same'),
        layers.C
[63]
full_model = full_model()

full_model.summary()
Model: "sequential_10"
_________________________________________________________________
Layer (type)                 Output Shape              Param #   
=================================================================
conv2d_28 (Conv2D)           (None, 128, 128, 128)     3584      
_________________________________________________________________
batch_normalization_27 (Batc (None, 128, 128, 128)     512       
_________________________________________________________________
max_pooling2d_16 (MaxPooling (None, 64, 64, 128)       0         
_________________________________________________________________
conv2d_29 (Conv2D)           (None, 64, 64, 64)        73792     
_________________________________________________________________
batch_normalization_28 (Batc (None, 64, 64, 64)        256       
_________________________________________________________________
max_pooling2d_17 (MaxPooling (None, 32, 32, 64)        0         
_________________________________________________________________
conv2d_30 (Conv2D)           (None, 32, 32, 32)        18464     
_________________________________________________________________
batch_normalization_29 (Batc (None, 32, 32, 32)        128       
_________________________________________________________________
encoder (MaxPooling2D)       (None, 16, 16, 32)        0         
_________________________________________________________________
flatten_10 (Flatten)         (None, 8192)              0         
_________________________________________________________________
dense_90 (Dense)             (None, 4096)              33558528  
_________________________________________________________________
dense_91 (Dense)             (None, 4096)              16781312  
_________________________________________________________________
dense_92 (Dense)             (None, 2042)              8366074   
_________________________________________________________________
dense_93 (Dense)             (None, 2042)              4171806   
_________________________________________________________________
dense_94 (Dense)             (None, 1024)              2092032   
_________________________________________________________________
dense_95 (Dense)             (None, 1024)              1049600   
_________________________________________________________________
dense_96 (Dense)             (None, 512)               524800    
_________________________________________________________________
dense_97 (Dense)             (None, 512)               262656    
_________________________________________________________________
dense_98 (Dense)             (None, 8)                 4104      
=================================================================
Total params: 66,907,648
Trainable params: 66,907,200
Non-trainable params: 448
_________________________________________________________________